mnist/mnist_new_model_erm.pth (torch, 533938 bytes, 10 tensors)

weight f4 [64, 784]
000000 d5 f0 3c 3c d4 d0 12 3d 10 36 64 bc e4 46 da bc
       0.011532028 0.035843685 -0.013928905 -0.026645131
000010 44 47 ba 3a 54 80 f5 bb cd 95 a9 bc 8f 94 7d bc
       0.0014211913 -0.0074921045 -0.020701313 -0.015477314
000020 a3 f5 c8 3c b2 ce 78 3c a6 5d 2a 3c 77 94 28 bc
       0.024531191 0.015185999 0.010398304 -0.010289303
000030 a7 08 a2 bc cf b5 c2 39 42 4d 07 3d 97 55 64 3c
       -0.019779516 0.0003713802 0.033032663 0.013936422
000040 81 4d 9c bb 42 02 68 3a 9d a6 90 3b 2f 74 1b 3d
       -0.0047699814 0.0008850434 0.004414393 0.0379526
000050 5b 59 95 3c d1 6b 41 bb 05 f7 1b bc 56 eb 07 3d
       0.018231085 -0.0029513726 -0.009519343 0.03318342
000060 4f 52 09 3d 03 1e 76 3c 29 7f be 39 43 08 6c bc
       0.03352576 0.015021804 0.00036334366 -0.014406267
000070 36 21 fe bc 8b be df 3b a0 cd c6 bc 44 40 a7 bb
       -0.031021696 0.0068281344 -0.024267972 -0.0051040966
000080 09 22 2c bc ca 80 6f bb 07 63 ed bc 90 30 66 bc
       -0.0105061615 -0.003654527 -0.028977884 -0.014049664
000090 fc 1c 07 bc 6e 2f ba 3c d6 d5 d3 bc 84 22 6d 3c
       -0.0082466565 0.022727694 -0.0258588 0.014473561
0000a0 75 08 cf bc 3e 50 0f bd d6 50 0c bd dc ea cc bc
       -0.025272587 -0.034988634 -0.03425678 -0.025014333
0000b0 83 c5 af 3b c0 02 16 bd 0e 01 61 bc a1 50 bc 3c
       0.0053641214 -0.036623716 -0.013733162 0.022987666
0000c0 b6 a2 a6 bc 9b a8 c4 bc c7 27 22 bd 71 81 0b bc
       -0.020341258 -0.024006179 -0.039588716 -0.008514748
0000d0 63 ba f0 3c ab d8 c6 bc 37 15 04 3d 28 b8 0c 3d
       0.029385751 -0.024273237 0.032246795 0.034355313
0000e0 19 70 08 3d 04 aa 99 bc dc 15 a9 3c 04 3d 5f bb
       0.03331003 -0.018757828 0.020640306 -0.0034063468
0000f0 09 bd 88 3c 94 32 fb 3c 8b cc 77 bc 6d 14 6e 3c
       0.016691701 0.030663766 -0.01512445 0.014531237
000100 72 2d 3c bd 5f 44 a1 3b ab 91 8d bc f8 fb 86 3c
       -0.045941778 0.0049214805 -0.017281374 0.01647757
000110 2e 14 3d bd 5a 01 e3 bc 7b 7d 87 bc d6 8a 83 bc
       -0.046161823 -0.027710605 -0.016539326 -0.016057413
000120 37 8a 3d bb 83 ce e5 bc 87 3d 06 3d 4e 51 ef 3c
       -0.0028921494 -0.028052574 0.03277352 0.029213574
000130 4f 44 0d bd ee dc 4c 3c 30 90 f9 37 32 da 0c 3c
       -0.034488972 0.012503846 2.9750256e-05 0.008596944
000140 86 f0 c7 bc b0 d7 81 3b 2c a6 d3 bc 1b f7 dc bc
       -0.024406683 0.0039624795 -0.025836073 -0.026973298
000150 35 e1 81 bb 05 92 e0 3c 6a 75 c9 bb 0f 8d af 3c
       -0.0039636143 0.027413378 -0.00614803 0.021429567
000160 86 56 6e bc b4 e0 f6 3c e4 b3 25 3c 3b 45 83 3c
       -0.014546996 0.030136444 0.01011369 0.016024223
000170 e9 20 0f bc b3 23 0e bb 33 c3 d5 bb 79 9a f2 bb
       -0.008735874 -0.002168876 -0.0065235137 -0.0074036685
000180 7f b8 99 3c 28 cd d8 bc ad 7c 10 3d a0 41 e7 3c
       0.018764732 -0.026465014 0.03527515 0.028229535
000190 d8 c9 a1 3c 45 2b 00 3c 84 b8 f5 3b 7a fd 28 3c
       0.019749567 0.007822816 0.0074988026 0.01031434
0001a0 7a 9b 04 bd 6c 20 5a 3c 3b 55 d2 3b 2e e6 86 3c
       -0.032374837 0.013313394 0.0064188517 0.01646718
0001b0 1c 39 3a bd 60 bc 5a ba a7 80 92 bc 9f 40 62 bb
       -0.04546462 -0.000834411 -0.017883612 -0.003452338
0001c0 d4 48 30 3c b5 11 82 bb ba fd b0 bc 25 e2 45 3c
       0.010759551 -0.003969396 -0.021605361 0.012077843
0001d0 df ac 0d 39 79 b1 f0 3c 17 65 7b 3c 56 55 02 3d
       0.00013511207 0.0293815 0.015343926 0.031819664
0001e0 f2 ed f7 bc 84 96 32 bc 7e 10 08 3d 89 32 9a 3c
       -0.030264828 -0.0109001435 0.033218853 0.018822925
0001f0 60 59 30 3b 61 5b 1b 3a 10 57 9e 3a 9f dd f0 bb
       0.002690874 0.0005926397 0.001208039 -0.007350638
000200 24 2f f2 bc 54 1f 4a 3b 5d 88 d6 3b 21 db 40 3c
       -0.029563494 0.0030841427 0.0065470175 0.011770994
000210 28 50 1f bc 95 37 b1 3c ab 2e 3a 3c 01 ff b0 3b
       -0.009723701 0.021632949 0.011363666 0.0054014926
000220 41 37 2c bc c3 8e be 3c 56 7d 57 ba d0 3d 0c 3d
       -0.01051122 0.023261433 -0.00082202756 0.034238636
000230 13 5d 8d bc 66 83 2d bd a1 a4 80 3a 4d 5b 07 3b
       -0.017256295 -0.04236164 0.0009814688 0.0020653785
000240 04 8e 63 bc 51 f9 22 3d d8 b6 64 bc 86 9a a8 bc
       -0.01388884 0.039788548 -0.013959609 -0.020581495
000250 5a 4b 21 3d 87 82 47 bb 89 b2 14 bc ff 20 ad 3c
       0.0393785 -0.003044279 -0.009075769 0.021133898
000260 af 65 da 3c 98 fb ce bc 64 b3 70 bb ac 5e a4 3c
       0.026659815 -0.025266454 -0.003672802 0.020064674
000270 15 2c 95 bc 1b 4f 61 bc 6f da b5 3c bb e5 98 3c
       -0.018209497 -0.01375177 0.022198884 0.018664232
000280 f7 74 0b bd 61 22 3c bc d4 27 3b bc dc d7 89 bc
       -0.034047093 -0.011482806 -0.01142307 -0.016826563
000290 27 38 36 bd 5e d9 df 3b b4 8b fc 3b fa 36 b4 bb
       -0.044487145 0.006831332 0.0077070836 -0.005499718
0002a0 3c 27 fb bb 68 87 a8 3c 61 4a 67 3b 74 4b 98 3c
       -0.007664589 0.02057238 0.0035292136 0.018590666
0002b0 58 ef 16 3d 8a e6 f4 bc 86 2d 98 3c 68 63 04 3d
       0.03684935 -0.029895086 0.018576395 0.032321364
0002c0 c8 9c e4 3c 12 f7 48 3c 63 b6 43 3d bc 93 8e bc
       0.02790679 0.012265937 0.04778136 -0.01740443
0002d0 26 81 26 3c 37 87 bc ba a8 ca ed bc a1 f2 3a 3c
       0.010162627 -0.0014383559 -0.029027298 0.011410386
0002e0 ab 86 db bc 69 21 37 3c 38 f3 dd ba ac 02 aa 3a
       -0.026797613 0.011177399 -0.0016933447 0.0012970767
0002f0 cd 5d d2 bc 24 6d f1 3c e7 db 8d bc a9 a4 04 bd
       -0.025679493 0.029470988 -0.017316772 -0.032383595
000300 9e 5b 82 bb 31 c3 7a ba 5d a2 9c 3b 12 41 af bc
       -0.003978207 -0.0009565829 0.0047800974 -0.021393333
000310 c6 bb 41 bc 27 cf b5 bb 53 3a 27 3c 6c 63 8b 3c
       -0.011824554 -0.005548376 0.010206777 0.017015181
000320 55 71 af bb 7b 23 0b bd cb 5c 0c 3c 08 2c 43 3b
       -0.0053540864 -0.033969384 0.008567045 0.0029780883
000330 6e cc c6 bc 22 e6 85 3c b7 d4 22 3d c6 40 90 3c
       -0.024267402 0.016345087 0.039753642 0.017609011
000340 0c 26 55 b9 fa 43 91 bc f7 c3 e8 bc c9 34 09 bd
       -0.00020327437 -0.017732609 -0.028413756 -0.033497605
000350 56 cf b8 3b f7 1f 4f bc 0c c5 01 3d a9 6d b4 bc
       0.0056399507 -0.012641898 0.03168206 -0.022024946
000360 dd e9 8c 3c a1 eb c2 3c a3 4a 1f 3d 56 91 cc 3c
       0.017201358 0.023793997 0.03888954 0.024971645
000370 17 d7 38 3a 2e cd a5 bc 39 76 c1 3c 24 05 15 bd
       0.0007051094 -0.020239439 0.023615943 -0.036381856
000380 34 0b ee 3c 52 5c 9d ba 10 82 00 3d cd 82 54 bc
       0.029058076 -0.0012005663 0.031374037 -0.012970638
000390 f6 50 01 bd 37 6a a8 3c 6d c6 d5 b9 c9 9c bd bc
       -0.03157135 0.02055846 -0.00040774365 -0.02314605
0003a0 39 2e 15 bc f4 40 4c bc d6 c3 8d bc a7 88 17 3d
       -0.009105259 -0.012466658 -0.017305296 0.036995556
0003b0 b0 2b 8e 3c 4f 80 cb bc 0d d6 de bc 52 49 8d bc
       0.017354816 -0.024841456 -0.027201677 -0.017246876
0003c0 07 8f 9e bc 56 1f e6 3c 4c 4c 47 3c 27 7e b2 bc
       -0.01935531 0.028091114 0.012164187 -0.02178867
0003d0 a9 66 b5 3a 55 a8 70 bc c8 77 87 bc 29 d2 ad 3c
       0.0013839799 -0.014688571 -0.016536608 0.021218376
0003e0 ce 6f a3 3c 66 85 51 bb 75 4a 4f 3b 48 09 70 3a
       0.019950774 -0.003197038 0.0031630073 0.00091566565
0003f0 8a 5e 0b bc 65 94 18 3d e2 d7 70 bc dd f8 a9 ba
       -0.008506427 0.037250895 -0.014699908 -0.0012967844

bias f4 [64]
000000 8f 07 81 3e ea 0a d1 3d 98 e8 c5 3d f0 31 88 3e
       0.2520108 0.1020716 0.09663504 0.266006
000010 c4 32 83 3d 4a 87 13 3e 37 43 a9 bc 1e 1f 57 3c
       0.06406167 0.14407077 -0.020661933 0.0131299775
000020 e4 2d 88 3d 2e 2d 15 bb 1b 19 13 3d de 04 65 3d
       0.06649378 -0.0022762525 0.035912614 0.055912845
000030 5e 89 cb 3c c0 78 00 3d 88 7e c5 3d c8 ff a8 3c
       0.024845775 0.031365156 0.096432745 0.020629779
000040 92 1c 1c 3e 4a 67 d1 bc 55 b6 71 3a 09 da 19 3e
       0.15245274 -0.025561947 0.000922059 0.1502458
000050 97 b6 ea 3d d9 5d e5 3c 8a 9d 3d 3c 83 9f 34 3e
       0.114606075 0.027998852 0.011573205 0.17638974
000060 cb e3 f2 bc f5 98 a9 bb a6 c9 1d 3d 02 1e 25 3e
       -0.029649636 -0.0051757046 0.038522385 0.16124728
000070 c9 d8 0a bc c4 88 93 3d 34 6d 95 3c ff 4c a6 bc
       -0.008474537 0.0720382 0.018240549 -0.020300386
000080 f4 21 8d 3d 99 96 8a 3d ad b2 8e bc 1a a5 27 bc
       0.06891242 0.067670055 -0.017419184 -0.010232234
000090 08 37 f0 3c 0a c5 14 3d a2 90 6b 3b cb aa e6 3b
       0.029323116 0.036320724 0.0035944362 0.007039403
0000a0 bb 59 0d 3d 96 93 1d 3e 9a 2c 11 3c 32 d0 35 3e
       0.0345094 0.15388331 0.0088607315 0.17755201
0000b0 59 50 03 be de f5 44 3e cb 07 ff 3d 07 96 8c bc
       -0.12823619 0.19234416 0.12452658 -0.017161382
0000c0 f4 81 7e bc d6 44 63 3e 81 fc 3c be a1 62 97 3e
       -0.015533913 0.22194228 -0.18455698 0.29567435
0000d0 7f 7d 00 bd 22 2b 37 3e d1 1d 89 3e fd 92 29 3e
       -0.031369682 0.17887548 0.2678056 0.16559978
0000e0 88 2f 37 3e 6e 7d 18 3e 99 bb fb 3c 76 b9 06 3c
       0.17889225 0.14891598 0.030729102 0.008222928
0000f0 63 f7 20 3e 65 9c 64 bc 2c 08 44 bc 30 12 16 bd
       0.1571937 -0.013953303 -0.011964839 -0.03663844

weight f4 [64, 64]
000000 3f da 97 bd 2c 2d d7 bd a7 2e 12 3d f4 dd c2 bd
       -0.07414674 -0.10506663 0.035689022 -0.095149904
000010 61 b2 4c bc 92 0f d5 3d 5a 36 3c 3d 83 ac 85 bd
       -0.012493701 0.104033604 0.04595027 -0.065270446
000020 96 34 a4 bc 8a bc 2b 3d be e0 be 3c 72 2d df bc
       -0.020044606 0.04192785 0.023300525 -0.02724335
000030 81 d7 92 bb bd 72 b0 bd 6d 60 09 be b7 76 84 3d
       -0.0044812565 -0.086156346 -0.1341569 0.064679556
000040 82 12 1a 3e c1 e2 31 3d 18 50 80 3c a3 8a 3f 3c
       0.15046123 0.04342914 0.015663192 0.011690768
000050 01 d7 5d 3d 5d 16 82 3d 1e 13 c6 bd d1 01 75 bc
       0.05416012 0.06351922 -0.09671615 -0.014954046
000060 cc dd ed 3d 5d 8e f4 bd 45 31 a4 bc 19 fe 86 3d
       0.1161457 -0.11941216 -0.020043025 0.06591434
000070 f1 b6 20 ba 5d c4 2a bd f4 7f 2b bd 34 c0 2c 3d
       -0.0006130776 -0.041691173 -0.041870072 0.042175487
000080 46 b0 bb bd 40 1f 55 3b e1 f1 82 3c d5 ce c1 bc
       -0.09164481 0.0032519847 0.015984477 -0.023658196
000090 3f 30 93 bc 46 07 bf bb b8 98 d7 bd 45 3c dd 3d
       -0.017967341 -0.0058297245 -0.10527176 0.10802511
0000a0 d5 97 05 3e a3 41 23 bc bc 57 cd 3d af dd e1 3d
       0.130462 -0.0099643795 0.100265 0.11028611
0000b0 55 b7 d5 3c 1c 6a 86 3d e0 63 94 3d 82 0c 1b bd
       0.026088396 0.065632075 0.07245612 -0.037853725
0000c0 18 9d 78 3b f0 6c b6 3d a4 2a b8 bd 25 3c 20 bc
       0.0037935432 0.08907497 -0.08992508 -0.009779965
0000d0 ba f6 2c 3d 05 a9 82 bd 74 5c 00 3d 41 f4 eb b9
       0.042227484 -0.06379894 0.03133817 -0.00045004676
0000e0 b9 97 80 3d e8 cf be bd 80 ed 4e 3c 8b 93 66 3d
       0.06278939 -0.09316999 0.012629867 0.05629305
0000f0 f7 c4 6e 3c d9 e0 a7 3d f3 7d b5 bd b3 a4 f8 3d
       0.014573327 0.08197183 -0.088619135 0.12140789
000100 8f e6 dd 3c f6 24 cc 3d 02 f9 2c 3d 29 85 d6 3d
       0.027087478 0.09967987 0.04222966 0.10474617
000110 88 59 e6 bd 4d 3b e7 bc cc 38 f1 bd f8 16 32 3d
       -0.112475455 -0.028226519 -0.11778411 0.043478936
000120 cc da a1 bd b2 6e 82 3d e9 6d 3f bd 62 86 03 3d
       -0.0790306 0.0636877 -0.046735678 0.03211058
000130 16 fb 24 3d 58 ba c4 bd a3 43 2e 3d 55 f7 44 bd
       0.040278517 -0.09605855 0.042544972 -0.048087437
000140 95 b7 cc 3d 66 88 6e bd 50 8c 63 bc 96 ed fc bd
       0.09995953 -0.05823555 -0.013888434 -0.123500034
000150 94 16 a2 3c 28 3b 59 bd 69 a1 18 3d 3f a9 c6 bd
       0.019786157 -0.05303493 0.037263308 -0.0970025
000160 86 3c 2e bd 08 ae 85 ba 28 ee 76 3c 30 a3 54 bd
       -0.04253819 -0.001019896 0.015071429 -0.05191344
000170 05 b3 f8 3c 9d 51 17 bd 67 a0 bf bd f9 0e bb bd
       0.0303588 -0.036943067 -0.09356766 -0.09133715
000180 39 9c a3 3d 8f ff b1 3d 5b 58 e0 3c 92 c6 17 bd
       0.079887815 0.08691322 0.027385881 -0.037054606
000190 ad 6b f4 bc 47 20 37 3c 75 b7 9a bc 88 90 3d bc
       -0.0298365 0.011177129 -0.018886307 -0.0115701035
0001a0 8f 8f c0 bd 1e 7a 4e bd 4b e9 9a bc b3 25 ef bd
       -0.09402382 -0.05040943 -0.01891007 -0.116771124
0001b0 a1 78 b4 3d 4f 56 86 3d b0 a6 6d 3d ea f4 d1 3d
       0.08812071 0.06559431 0.058020294 0.10251792
0001c0 1f e0 3e 3d 7f d1 34 bd 17 96 26 bb cc 8f ba bd
       0.046600457 -0.044145104 -0.002541905 -0.09109458
0001d0 fc 55 2b 3c a7 d5 88 3d 8e b6 93 bd 80 92 b9 bd
       0.010457512 0.06681376 -0.07212554 -0.09061146
0001e0 74 46 96 bd 57 2e a9 3d a0 8b 0e bb 87 72 b1 ba
       -0.073376566 0.08260792 -0.0021750703 -0.001353816
0001f0 5b 0d d3 3d 6c 27 bf 3d 29 3b bf bd 70 40 c1 bd
       0.10305282 0.09333691 -0.09337456 -0.094361186
000200 63 72 a1 bd cd ef d9 3d 1e 52 00 3e 0d 50 03 3d
       -0.07883146 0.106414415 0.12531325 0.032058764
000210 e4 22 00 3e 7f 04 a2 bd 15 c1 03 3e 6a b3 d5 bd
       0.1251331 -0.07911014 0.12866624 -0.10434611
000220 df ca c7 3d bf 67 92 bd 62 e5 0c 3d 77 cc 7b bc
       0.097554915 -0.07148694 0.034398444 -0.015368572
000230 71 fd a6 3d 60 ab e0 bd d1 29 11 bc 5d 7d 6f 3b
       0.08153809 -0.10970187 -0.008860067 0.0036543228
000240 b3 e5 83 bd cc c3 9e bd ac f7 a0 3c 68 fc 8c bd
       -0.06440296 -0.07752189 0.01964935 -0.0688408
000250 31 3d cb bd 35 6c 24 3d 78 37 da bd 1c 34 d1 3d
       -0.09923781 0.040142257 -0.10655111 0.10215017
000260 1c 0f d7 bd 13 11 f5 3d 48 27 f2 3d 04 76 01 3e
       -0.10500929 0.11966147 0.118238986 0.12642676
000270 02 a3 54 bd e3 bf f9 3c d0 d1 a8 3d 93 8c 2f 3d
       -0.05191327 0.030487007 0.082431436 0.04285867
000280 94 67 00 3d d3 8b 64 3d 51 9f 46 3d d6 9e c3 3d
       0.03134878 0.05579741 0.04849178 0.0955178
000290 f8 eb f0 bd 10 d7 9a bd 90 2e a7 bc a9 04 15 3d
       -0.117637575 -0.07560551 -0.020407945 0.036381397
0002a0 51 5d 89 bd b0 b9 8e bd 88 bb b6 3d 60 6d a5 bd
       -0.06707252 -0.06969011 0.089224875 -0.08077502
0002b0 68 ac 2b 3d e3 76 c1 bc 0a 41 82 bc 9b a6 ac bd
       0.041912466 -0.02361626 -0.015900154 -0.08430215
0002c0 40 b4 ec bd 05 d5 b4 3d 68 45 7a 38 57 56 70 bd
       -0.115578175 0.08829693 5.9669284e-05 -0.05867609
0002d0 94 ef df 3d 9f 54 4e 3d 15 a0 f7 bd ae 74 04 3e
       0.10934368 0.05037367 -0.1209108 0.12935135
0002e0 21 43 50 3c bf e5 a5 bd 28 d8 19 bd f0 b0 37 3b
       0.012711317 -0.08100461 -0.03755966 0.0028029047
0002f0 0a a7 01 3e 0a de 24 bd f8 20 84 3d 22 bd fd bc
       0.12661377 -0.040250815 0.06451601 -0.030973975
000300 07 ff 90 3d d0 aa a1 bd 82 6c fa 3d 2b 9c 64 3d
       0.070798926 -0.07893908 0.122277275 0.055812996
000310 89 9a e6 3d 4a 50 8a 3d 06 b4 ea 3d 6e d8 81 bd
       0.11259944 0.06753595 0.11460118 -0.06340109
000320 ba eb db 3d f9 9d cf bd ca 7c 83 bd 66 91 a3 bd
       0.10738321 -0.10137553 -0.06420286 -0.07986717
000330 df 00 aa bd b9 5d 6c 3c 52 5e 84 3d c4 b3 3c bd
       -0.083009474 0.014426642 0.06463303 -0.046069875
000340 aa a3 48 3d 15 cf e6 bd cc ab c4 bd 20 7a 11 3d
       0.048984207 -0.112699665 -0.0960308 0.035516858
000350 f5 f6 a1 bd 5a 92 6d 3d 6c b8 8d bd 72 2c bc bb
       -0.079084314 0.0580009 -0.06919941 -0.005742603
000360 43 5f b3 bd 16 b1 d7 bc b4 47 a7 bd d0 93 82 bd
       -0.08758404 -0.026329558 -0.08167973 -0.06375849
000370 10 ec a6 bb af f1 c9 3d e9 93 88 3d 28 16 8c 3c
       -0.005094059 0.098605506 0.066688366 0.017100409
000380 be 8b c5 3d 2e 8f 73 bd 95 5f c0 3d 49 31 14 3d
       0.09645794 -0.05946272 0.09393231 0.036179814
000390 2e 2c ad bc e1 4f 4f 3d 19 10 2f 3d ef 47 ce 3c
       -0.02113923 0.050613288 0.04273996 0.025180785
0003a0 84 8c e6 3d e1 d3 b3 3d 47 ad d2 3d f8 26 47 bd
       0.1125727 0.08780647 0.10286956 -0.048621148
0003b0 d1 04 e1 bd e3 da e7 3d 0c 91 8a bd 81 98 db 3d
       -0.10987247 0.11321046 -0.06765947 0.10722447
0003c0 e8 1f 0a bd 9c 54 4e 3d 22 3d 56 3c 85 e1 56 3d
       -0.033721834 0.05037366 0.013076099 0.052461166
0003d0 cb 4a 98 bd de 43 11 3e 35 68 3a 3c 58 01 c8 bd
       -0.074361406 0.14186046 0.011377384 -0.09765881
0003e0 ca 7c b8 bb 29 0f de 3d a0 07 8e bd 5b ef ed bc
       -0.0056301104 0.10842735 -0.06935048 -0.029044798
0003f0 5a f5 67 bd bc 27 d1 bd c6 42 83 3c a4 ff 9e 3d
       -0.05663047 -0.10212657 0.016023051 0.07763603

bias f4 [64]
000000 9c 9f be 3e 63 1b 21 bc ba 8b 50 3e dd 95 78 3e
       0.37231147 -0.00983319 0.20365801 0.24275918
000010 9d 07 ab 3d e1 1d a4 3d 61 33 5e bd 52 ba 0d 3e
       0.083510615 0.080135114 -0.054248217 0.13840607
000020 31 45 4f be 8d 5d 65 3d 59 7b e4 bd 5a ac 02 3f
       -0.20241238 0.05599742 -0.11156339 0.5104424
000030 5d 42 4f bc 57 3b 99 3e d1 92 93 3e 27 0f f5 3d
       -0.0126501 0.29928085 0.2882295 0.11965781
000040 73 f5 45 bd 82 de 75 3c 04 1a 5d bd a2 99 fd bc
       -0.04832978 0.015006663 -0.05397989 -0.030957047
000050 16 ff d9 3d 4f 33 6b 3d 85 18 4e 3c 7e ba 47 3e
       0.10644357 0.05742198 0.012579088 0.19504735
000060 23 d4 60 bd 3e cb a0 3e 96 f5 30 3c b6 3d 10 be
       -0.05488981 0.3140506 0.01080074 -0.14086041
000070 aa 90 ea bd e8 e8 3c 3d 59 12 26 bc b0 69 8b 3d
       -0.11453374 0.046120554 -0.01013621 0.06807268
000080 68 a0 1c be 0e 0b 01 3d 46 ec 98 3e 26 93 a1 3c
       -0.15295565 0.031504683 0.29867762 0.019723486
000090 19 04 fe 3c ee 23 b5 bd cf f1 1d bc b9 e5 2d 3f
       0.031007813 -0.08844744 -0.009640171 0.67928654
0000a0 8d 5e ce 3e 07 28 c9 3e f1 9f e1 3c 95 54 8f 3d
       0.40306512 0.3928835 0.027542086 0.069985546
0000b0 98 5f 92 bd ed bc 8f bd 47 e5 b5 3d 56 ae 18 be
       -0.07147139 -0.070184566 0.08881622 -0.14910254
0000c0 b9 6b 07 3f f3 8b 23 3d 81 1d 21 bc d9 b3 53 3e
       0.52898747 0.039928388 -0.009833694 0.20674075
0000d0 24 82 ba 3d a8 77 61 3e ed c1 39 bd a5 09 01 be
       0.091068536 0.22018301 -0.045350958 -0.12601335
0000e0 a4 ba d4 bd 7f a7 14 bd 6d 10 a2 3e f7 b2 ab 3d
       -0.103871614 -0.03629255 0.31653157 0.08383744
0000f0 ba b6 c9 bd 85 aa 37 3e 3a 3b 0c 3f b2 6f 7a 3d
       -0.098493055 0.17936142 0.5477787 0.061141677

weight f4 [1, 64]
000000 db f3 b6 be 23 9e 3f 3c 54 c9 3f be 5f 31 7c be
       -0.35732922 0.011695418 -0.18729144 -0.24628209
000010 44 09 cb 3d 60 d8 46 3c 8d f7 85 bd be 03 cc bd
       0.09913877 0.012136549 -0.06541357 -0.09961651
000020 47 e4 3f 3e ae 0e a3 3e 7d 0c 6f 3c b8 84 07 bf
       0.18739425 0.31847137 0.01459038 -0.5293689
000030 a1 36 1b 3d a6 06 91 be 52 00 87 be 2e 6b f0 bb
       0.037893895 -0.28325385 -0.26367432 -0.0073369956
000040 d3 52 a9 bd e1 71 72 3e 3c ad 43 3d af 90 8b 3e
       -0.082677506 0.23676254 0.04777263 0.27258822
000050 66 4a d1 bd 20 4b 11 3e df 64 8e bd 4c e3 29 be
       -0.102192685 0.14188814 -0.069528334 -0.16590613
000060 f0 1f c6 bb b0 a4 9b be 23 55 33 bc c1 70 35 3e
       -0.0060462877 -0.30399084 -0.010945591 0.17718793
000070 23 12 3c 3d f1 07 17 3e 80 62 a1 3d bf d6 08 3e
       0.045915734 0.14749123 0.078801155 0.13363169
000080 eb 99 82 3e 45 d9 32 3d a7 6e a5 be fe 06 05 bc
       0.25508055 0.043664236 -0.32310984 -0.008119343
000090 ab 80 2a 3d 70 16 14 bd b3 7c c1 3d d6 ed 32 bf
       0.041626614 -0.03615421 0.094476126 -0.6989416
0000a0 36 95 ba be ab 13 b7 be fa df 72 bb 85 a9 b7 3d
       -0.36441964 -0.35757193 -0.003705977 0.0896788
0000b0 bd 21 5b 3d 56 9a 97 bb c0 e0 5e 3e 79 f1 58 3e
       0.053498972 -0.0046265526 0.21765423 0.21185865
0000c0 71 a5 07 bf cc 26 d1 3d e7 4c 74 bd 2f 73 5f be
       -0.5298682 0.10212478 -0.059643652 -0.21821283
0000d0 72 ee fa 39 5c 71 47 be 02 85 c4 bc 4e c5 03 bd
       0.0004786137 -0.19476837 -0.023989204 -0.032170586
0000e0 2c 50 6c 3d a5 25 a3 3d 6d 41 ab be e0 a7 8b 3d
       0.057693645 0.079661645 -0.33448353 0.06819129
0000f0 61 57 42 3e f0 c4 4e be bf a5 10 bf 44 5d b2 bb
       0.18978645 -0.20192313 -0.5650291 -0.005443247

weight f4 [64, 784]
000000 12 ea b9 3c ea 9f 2a bc c8 75 d0 3c 98 56 c3 bc
       0.022694621 -0.010414103 0.025446787 -0.023845002
000010 4a 17 d5 bc b8 15 80 3c a4 0d 08 bd 8e 3c 59 bc
       -0.026012082 0.015635356 -0.033216134 -0.013259066
000020 e3 b0 08 3d f0 1b 9a 3c f3 cf c6 bc 68 f5 ac 3b
       0.033371817 0.01881215 -0.02426908 0.005278278
000030 60 9c 67 3b dc 1c 12 bc 60 22 d8 3b 2c 37 ae 3c
       0.003534101 -0.008918013 0.0065958947 0.021266542
000040 04 61 1e 3c 22 82 e3 3c e0 24 2a bb a2 57 f6 3c
       0.009666685 0.027772013 -0.002596192 0.030071083
000050 fb be 08 3d 55 ea 0d bd 59 56 00 3d 28 45 69 3c
       0.03338526 -0.034647305 0.031332348 0.01423768
000060 73 49 b4 bc 08 9c f3 bc bc 98 0b bc 70 c5 a4 3c
       -0.02200768 -0.029737487 -0.008520301 0.020113677
000070 bc 8e 0d 3c 34 73 0b bd 50 75 20 bb 48 ae 96 bb
       0.008639988 -0.034045413 -0.0024483986 -0.0045984127
000080 e3 1b 0e bd 76 71 08 bd 2e 7f e8 3c 18 b8 ae 3c
       -0.034694564 -0.03331133 0.028380957 0.021328017
000090 58 ee 52 3c 48 6a 04 bd 72 eb 6b bc a0 4a b6 bc
       0.012874208 -0.03232792 -0.014399396 -0.02225238
0000a0 a7 58 dc 3c 60 43 59 3c 2d 30 ae 3c f6 dc e6 3b
       0.026897741 0.013260692 0.021263206 0.0070453836
0000b0 78 9d 10 3d 04 0f 37 bb 94 44 b7 bb 65 22 f0 bc
       0.035306424 -0.0027932534 -0.005592892 -0.029313276
0000c0 00 b5 2b 39 ee e2 71 bc 08 6b 33 3c 38 9d b8 bc
       0.00016375259 -0.014763577 0.010950811 -0.022535905
0000d0 03 89 87 bc 28 fc 76 3c 00 00 89 bb 50 d0 c9 3c
       -0.016544824 0.015074767 -0.004180908 0.024635464
0000e0 c0 8b 16 bc e5 40 08 3d fc ee 8d bc 23 be 53 bb
       -0.009188592 0.033265013 -0.01732587 -0.0032309375
0000f0 ad 6d 7e 3c 4a 42 7a bc 47 19 0a 3c 6a 2a c2 3c
       0.015529078 -0.015274594 0.008428878 0.023701865
000100 0f 87 47 3c 90 3a c4 3c dc 99 66 3c 19 8b 06 3c
       0.012178197 0.023953706 0.014074769 0.008211874
000110 17 d4 ba 3c 79 05 2d bd fe 1a 36 3b 7f 2a ab bc
       0.02280621 -0.042241547 0.0027787085 -0.020894287
000120 46 20 bd bc 47 4b 17 bc db ef 99 3c 24 3f 96 bb
       -0.023086678 -0.009234256 0.01879113 -0.0045851637
000130 47 33 1d bd 0e d6 a5 3c e8 8e 32 3c 18 2f 08 3c
       -0.03837898 0.02024367 0.010898329 0.008312009
000140 f2 50 70 bc 12 de 3d bc 48 f3 36 3c f8 0f 19 3c
       -0.014667736 -0.01158859 0.011166401 0.009342186
000150 78 3b 4d 3c 4e d4 82 3c 45 77 b2 3b 6e 41 17 bc
       0.0125263855 0.015970375 0.005446347 -0.009231908
000160 65 e6 e5 3b 46 16 31 3c 17 9f 58 bb c3 76 0e 3d
       0.0070159906 0.010808533 -0.003305381 0.03478123
000170 8a 64 16 3c 68 5e d0 bc cf c4 ed bb 0a cb c5 bc
       0.009179244 -0.025435641 -0.0072561274 -0.024144668
000180 cf 55 24 3c d7 f1 cb bc ac c4 55 bc a8 5a 64 bc
       0.010030224 -0.024895592 -0.0130473785 -0.01393763
000190 ad 4e 05 bd 48 e2 1b ba d4 51 dc bc e2 4a ff bc
       -0.032545734 -0.00059464993 -0.026894487 -0.031163637
0001a0 81 1f d6 b7 b4 4e f1 bc ae 36 b2 3c f5 62 c3 3c
       -2.5525458e-05 -0.029456474 0.021754589 0.023850897
0001b0 0e 1c e1 3c 19 00 ec bc 48 d7 79 3c 2c 35 d4 bc
       0.027479198 -0.02880864 0.015249081 -0.02590426
0001c0 f4 44 76 bc 00 60 d7 38 6f 92 0e bd 4c 06 b1 bc
       -0.015031088 0.0001026988 -0.03480762 -0.021609448
0001d0 a3 ea 86 bc 45 9d 05 bd 17 2f 06 3d 6d e8 07 3d
       -0.016469305 -0.032620687 0.032759752 0.033180643
0001e0 d9 35 29 bd 37 18 aa bc 35 b3 a3 3c f5 6e 75 3c
       -0.04131112 -0.0207635 0.019982914 0.0149800675
0001f0 92 40 25 3c d2 1c bb 3c ce 2e 17 3d ad 91 25 bc
       0.010086196 0.022840891 0.03690987 -0.010105533
000200 a9 89 17 3d f0 a3 0f ba 59 a5 2f 3d dd 36 b0 b9
       0.036996517 -0.00054794457 0.042882297 -0.00033610212
000210 d1 4d 64 bc c1 9a 2e bb 20 5c e2 bb 9e ef cc bc
       -0.0139345685 -0.0026642533 -0.006907955 -0.025016602
000220 9d 07 16 bd 09 0b 10 bc 00 c8 09 3b 80 81 7a bc
       -0.036628354 -0.0087916935 0.002102375 -0.015289664
000230 ca ce e7 3c ee 87 b3 3c 85 9d e5 3c 23 eb a1 bc
       0.028296847 0.021915402 0.028029213 -0.019765442
000240 d5 c3 ec 3c 30 f0 c9 bc 95 d4 0a 3d 07 d6 9b 3b
       0.028901974 -0.024650663 0.03389414 0.0047557387
000250 d2 1f 0f 3c 41 1e df 3c ce e3 12 bb 13 95 f9 3b
       0.008735614 0.027236106 -0.0022413614 0.007616648
000260 be 3e 6b bc 22 7a 13 3d 0d b8 b7 3b 6d 4a ad 3c
       -0.014358221 0.036005147 0.0056066574 0.021153653
000270 e1 d7 91 3c 67 8c 45 3d 64 37 52 ba 99 fa 0a 3c
       0.017803134 0.0482296 -0.0008019118 0.008482599
000280 c0 b0 d0 bc 77 4a a4 bc 67 9e ae bc ea f0 25 3c
       -0.025474906 -0.020055039 -0.021315766 0.010128239
000290 10 31 21 bb d5 2d 7e 3c 59 9a 56 3c 2a 0c 4e bc
       -0.0024595894 0.015513857 0.013098323 -0.012576142
0002a0 66 9a 46 bc f0 f0 2e 3c db b6 a3 bc b3 14 f2 bc
       -0.012121772 0.010677561 -0.019984653 -0.029550886
0002b0 62 c6 28 bc a3 70 01 bd 28 d2 b9 39 b6 f9 ee bc
       -0.010301204 -0.03160156 0.00035442528 -0.029171806
0002c0 27 0a 88 bc 4a ad b0 3c 21 88 bb 3c b3 97 33 3d
       -0.016606404 0.021567006 0.02289206 0.043845844
0002d0 20 5d da 3c 21 7e 4b bc ab b0 cb 3c 21 24 7a bb
       0.026655734 -0.012420208 0.024864515 -0.0038168507
0002e0 76 c7 cb 3c c6 3f 03 3c 46 d3 7f 3c 1c 1a 54 3d
       0.024875384 0.00801081 0.015614336 0.051782712
0002f0 56 2e 8d 3b 0b 39 d1 bc 16 ea b8 bc 16 ab f9 bc
       0.004308502 -0.025539896 -0.022572558 -0.030477088
000300 8b 8c 9b bc e7 5e fc 3c c5 cb e9 3c 29 c7 b1 bc
       -0.018987915 0.030806972 0.028539548 -0.021701412
000310 9c 8d 9e bc dc 38 e6 bc 1b 85 81 3c 53 17 7e bb
       -0.019354634 -0.028103285 0.01581054 -0.0038771227
000320 41 23 f8 bc d3 07 b5 bc 59 68 85 bb 83 9f 78 bc
       -0.030290248 -0.022098457 -0.004071277 -0.015174749
000330 db 79 0b 3d 4a 01 53 3d 9b 7a 83 3c 99 ca 0c 3d
       0.034051757 0.0515149 0.016049674 0.0343729
000340 15 50 60 3c ae a7 3b 3d 1c 61 5a 3d e9 6e 81 bb
       0.013690968 0.04581421 0.053315267 -0.003949989
000350 c9 79 15 3d ed a7 6e 3c 8d ce c4 3c bc 6f 0a 3c
       0.036493097 0.014566404 0.024024272 0.008449491
000360 b6 df ec 3b 39 a0 01 bc c5 76 dd 3b 26 26 35 3c
       0.007228817 -0.007911735 0.006758543 0.011056459
000370 55 3d b8 bc c7 ca 92 bc 22 ab c8 bc 57 6b eb 3c
       -0.022490183 -0.017918957 -0.024495665 0.028737707
000380 ee 4f 64 ba 42 f4 e4 3c 2e f7 f1 bb 52 25 3d 3c
       -0.000870942 0.027948502 -0.0073842024 0.011544542
000390 c8 80 1e bd 92 7a 5a 3c 15 2b 5f bb f3 1a fb 3c
       -0.038697034 0.013334887 -0.0034052779 0.030652499
0003a0 6b 2e f0 bc a3 a7 86 bb 12 6f 2b bc 6b 40 45 bb
       -0.029319009 -0.0041093393 -0.010463493 -0.003009821
0003b0 37 55 a8 3c aa aa 0e 3b 89 68 89 bc a0 ea 3c 3d
       0.020548446 0.0021769204 -0.016773479 0.046122193
0003c0 f2 ab 99 3b 2b da c3 3b d7 b6 6f bb df 08 e7 39
       0.004689687 0.0059769354 -0.0036577487 0.00044066363
0003d0 96 99 85 bc 77 29 28 3d 69 3e 71 3b fb 6e b4 3c
       -0.016308587 0.04105517 0.003681088 0.022025576
0003e0 ee f7 70 3c e0 b7 84 bc bc ed 09 3c f8 a7 b4 bc
       0.014707549 -0.01620096 0.008418497 -0.02205275
0003f0 71 06 06 3d c0 ec e3 bb 6a 86 b4 bb 7a 2d 85 bc
       0.032720987 -0.006955713 -0.0055091875 -0.016257036

bias f4 [64]
000000 b5 dc b4 3c 45 1a 9f 3c 37 d9 a9 3c 3a 96 0b bd
       0.022077898 0.019421706 0.020733459 -0.034078814
000010 99 10 05 bd c9 4f d5 bc 14 fa a8 3c cf 37 33 bb
       -0.032486532 -0.026039021 0.020627059 -0.0027346497
000020 32 af 85 3d b4 19 09 bd 67 8f 27 bd 99 c2 98 bc
       0.065275565 -0.033471778 -0.040908244 -0.018647479
000030 e4 d1 10 bd 1d 60 59 3d 89 31 3a 3d d0 b0 1b 3a
       -0.035356417 0.053070176 0.045457397 0.0005939128
000040 fa b5 df bc 12 80 37 3d c0 c2 b9 3c eb a8 18 bd
       -0.027308453 0.04479987 0.022675872 -0.037270468
000050 82 7f a2 bc bd 17 21 3d 2e 45 ae 3c 54 e6 8d 3d
       -0.019836191 0.03932928 0.021273222 0.06928697
000060 40 c0 44 3c 6b ce 8c bc f3 61 55 3d 9b b5 16 3d
       0.012008727 -0.017188272 0.052095365 0.036794286
000070 79 42 a0 3c 26 46 72 3d 2b a8 e4 3b 11 79 fa 3c
       0.019562947 0.05914893 0.006978055 0.030575307
000080 84 69 5d 3d fa 5e ae 3b 6c 65 ef 3b 61 55 87 3d
       0.054055706 0.0053213807 0.0073057916 0.066080816
000090 da c5 6b 3c da 10 32 3c 5e 59 02 bb 1b 92 71 3d
       0.014390433 0.010868276 -0.0019889693 0.058977228
0000a0 6c e2 16 3d da 84 05 3c e6 23 88 bc de 26 71 3d
       0.036837026 0.00814935 -0.01661868 0.058874957
0000b0 0a 13 c0 3c fa 14 81 3d 8e 22 0c 3d 90 aa 72 bb
       0.023446579 0.06302829 0.03421264 -0.0037027933
0000c0 e1 ff 57 3d ac 95 f6 bc 55 0f b4 bc cb 91 1e 3b
       0.05273426 -0.030100666 -0.021979967 0.0024195786
0000d0 50 80 ec 3b 1a 14 29 3d 3b 72 5a 3d 54 4a 22 3d
       0.0072174445 0.041278936 0.053331595 0.039621666
0000e0 f2 45 30 3d 5f 2f 2b 3d 94 88 1f 3c 92 3c ac 3d
       0.043035455 0.041793223 0.009737153 0.0840999
0000f0 f5 7c 7f 3d 44 8c 95 3c 82 e6 13 bc f7 0f 87 3d
       0.062375028 0.01825536 -0.009027125 0.06594842

weight f4 [64, 64]
000000 88 87 69 3d ab 0a ad 3d c4 3d 01 bd 3a 6b fd 3c
       0.05701402 0.084493004 -0.031553045 0.030934919
000010 18 e9 0f be 3a 0e a4 3d e8 6a 6c bd 32 53 aa 3c
       -0.14053762 0.08010526 -0.05771914 0.020791624
000020 97 8d 7d 3d ab ed df bb d2 c2 69 bd 6a 75 a5 bd
       0.06190261 -0.006833752 -0.05707056 -0.080790356
000030 f6 78 41 3d 74 5e 21 3e c5 42 22 3d 6a f5 18 bd
       0.047234498 0.15758687 0.039614458 -0.03734342
000040 38 04 04 bd 02 57 8d bc 28 b1 83 bd 5b 87 5e bd
       -0.032230586 -0.017253403 -0.06430274 -0.054328304
000050 99 93 83 3d 9d 84 91 3d 1f 17 88 3c 1e 43 31 bd
       0.064246364 0.07105372 0.016612587 -0.0432769
000060 8a 11 ca 3d 2e cb f7 bc 98 89 cf bb 05 ac f6 3d
       0.098666266 -0.03024825 -0.006333541 0.12044529
000070 8b d6 ba bd a3 50 12 3e a0 f2 63 3d 3a ed 9d bd
       -0.09122952 0.14288573 0.055651307 -0.07711263
000080 37 4d 93 3d a0 79 94 bd 28 6e 29 3d 0a 06 1d 3e
       0.07192462 -0.07249761 0.04136482 0.15334335
000090 64 61 7a 3d 43 48 87 bd c8 79 78 bd 89 c9 76 3d
       0.061128035 -0.0660558 -0.060663015 0.060250793
0000a0 f2 3a a3 bd 34 68 c6 bd 37 5a ac bd 80 0f d8 bc
       -0.07970227 -0.09687844 -0.084156446 -0.026374578
0000b0 f7 00 5c 3d cf 19 04 3e 2a e6 42 3d b7 d2 8c bd
       0.053711858 0.1290047 0.047582783 -0.06876128
0000c0 1c 88 1d 3e a5 09 58 bb b6 16 96 bd 83 4b 90 3d
       0.15383953 -0.0032964733 -0.073285505 0.07045653
0000d0 e3 76 0b 3e 0a db b5 3d 04 f5 30 bd ac b4 4c 3d
       0.1361957 0.08879669 -0.043202415 0.04997699
0000e0 19 32 da 3d 7e a4 ef bd 03 b4 c8 3d bd a4 12 3e
       0.106540866 -0.11701296 0.097999595 0.14320655
0000f0 df 4f b4 3d 89 f6 a3 3d 00 9d f5 bc 5d b2 2b 3c
       0.08804297 0.08006007 -0.02998209 0.010479537
000100 d0 d6 34 bd dc e2 f0 bd 9c bd a7 3d 84 20 f1 bd
       -0.044150174 -0.1176202 0.08190462 -0.1177378
000110 48 29 bf bd ef ad 98 bd 69 26 db bd 4c 2e e3 bc
       -0.09334046 -0.0745505 -0.107006855 -0.027732037
000120 45 2e be bd bb de 77 bd d7 7b 24 bd 38 80 4f bc
       -0.09286169 -0.060515147 -0.040157165 -0.012664847
000130 dd 48 77 3c 3b df 3f bc 4a 97 e1 3d 76 a6 9d 3c
       0.015093056 -0.011710937 0.11015184 0.019244414
000140 38 98 e8 3d 23 8c dd bd fc 61 b3 3c 43 d5 0f bc
       0.113571584 -0.108177446 0.021897309 -0.008778873
000150 c8 87 01 3d 85 32 59 3c 18 5c af 3d 25 73 eb 3d
       0.03162363 0.013256674 0.08562487 0.114965715
000160 e5 08 3c 3d 80 f0 6f ba 3d 7a 91 bd 9d a6 d9 ba
       0.04590692 -0.0009152964 -0.07103393 -0.0016605441
000170 af ff 80 bc 58 dc d3 3d 7a af 2f 3d bd 38 58 bd
       -0.01574692 0.103447616 0.042891957 -0.052788485
000180 c1 63 26 3d c7 d7 06 3d 82 84 64 bd a6 74 87 3d
       0.040622476 0.032920625 -0.05579043 0.06614046
000190 78 d8 cf bc 3e 92 26 bd 99 cf aa 3d 5b 72 e0 bc
       -0.025371775 -0.04066681 0.08340377 -0.027398279
0001a0 6d 36 d0 bd c5 a5 95 bd 72 1d c3 bc 9d 28 46 bd
       -0.10166631 -0.07307009 -0.023817752 -0.048378576
0001b0 83 7a fa 3c a6 cb bf 3c 8b 07 ec bd 06 f3 b4 3d
       0.030575996 0.023412537 -0.11524876 0.088354155
0001c0 3a 2a c3 3d e1 08 15 bd 30 00 1a 3d 72 be e5 3c
       0.095295385 -0.03638542 0.037597835 0.028044913
0001d0 7e fb 60 bd 9a e4 93 3d 08 1e e9 bc 64 7b ed bd
       -0.05492734 0.07221337 -0.028456703 -0.115958005
0001e0 22 1d 47 3c 7f 70 b5 3c ca ca 74 3d 77 ee cd bd
       0.012152942 0.022148369 0.059763707 -0.10055249
0001f0 a7 37 c4 bc ea 3b 30 bd 7f a1 08 3d 05 e4 97 bd
       -0.023952318 -0.04302589 0.03335714 -0.07416538
000200 06 7f f7 3d a8 1c ca 3d a4 71 99 bd f1 dc 2d 3e
       0.12084775 0.09868747 -0.07492378 0.16978814
000210 12 90 f5 3d 2f b6 8a 3d fa 72 ab 3d 9b 84 97 3c
       0.1199037 0.0677303 0.083715394 0.018495848
000220 69 7b b1 bd 33 0a f9 bc ad b3 54 3c 0d b3 2b 3e
       -0.08666117 -0.030400371 0.012982291 0.16767521
000230 9c 88 a4 3d 63 c5 e4 3c ae fe dc bd 32 fd be 3d
       0.08033869 0.027926153 -0.10790764 0.09325637
000240 44 c6 f0 3d ba dd 0b 3c dd b2 ec 3d c5 f1 08 3e
       0.11756566 0.00853675 0.11557553 0.13373478
000250 a5 b9 c8 3d 26 b5 6c 3c fd 25 9d 3d b2 7f 93 3d
       0.09801034 0.014447486 0.07673261 0.0720209
000260 a7 10 be 3c d5 b8 18 3e 77 06 0c 3e 09 f3 3b bd
       0.0232013 0.14914258 0.13674341 -0.045886073
000270 ad 26 64 bc c4 9f 05 3e b5 5a 02 bd 2e 6f 42 bd
       -0.013925237 0.13049227 -0.031824786 -0.04746931
000280 79 93 31 bd 04 f4 8c 3d f5 b9 30 3d b2 b1 37 be
       -0.04335353 0.0688248 0.043146092 -0.17938879
000290 d2 81 85 bd ab e1 fc 3c 52 a5 5a bb 57 ea 0c be
       -0.06518902 0.030869326 -0.0033362699 -0.13761269
0002a0 4d 20 c4 bc fc 4b 02 bd 7f bd d1 3c 6f fd e5 bd
       -0.023941183 -0.031810746 0.025603054 -0.11229979
0002b0 33 18 0b 3e 14 41 a0 3d bd c8 d8 bb 15 10 b8 3d
       0.1358345 0.07824913 -0.0066157267 0.089874424
0002c0 46 ec 8f bd 19 92 30 3d a2 a0 24 3d 3e 28 27 be
       -0.070274875 0.04310808 0.040192254 -0.16323945
0002d0 32 a5 3b 3d 73 b0 fb bd 47 ef 69 bd 2c cd 9c bd
       0.04581184 -0.122895144 -0.05711296 -0.07656321
0002e0 f7 58 d9 bd cb 5f 11 3e 30 43 cc bd 02 d9 81 bc
       -0.10612672 0.14196698 -0.099737525 -0.015850548
0002f0 05 62 ba bd ae 17 aa 3d a2 49 f7 3c 53 f7 dc 3d
       -0.09100727 0.08305298 0.030186478 0.10789361
000300 03 7a 8a bd 9f eb df 3d 6f 55 e2 bd 70 97 b7 3c
       -0.06761553 0.10933613 -0.110514514 0.022411078
000310 34 5a 4a 3d 5c aa b5 bd d5 79 93 3d 94 51 6d bd
       0.04940243 -0.08870384 0.07200972 -0.057939127
000320 78 80 a2 bd da f6 96 bd 5c b1 a5 bd 30 c5 9e 3d
       -0.0793466 -0.07371302 -0.08090469 0.07752454
000330 80 11 0e 3d 52 e1 8f 3d c2 cc e1 3c 60 72 8a bc
       0.034684658 0.07025398 0.027563456 -0.016900241
000340 37 38 e6 bc b6 69 93 bd 4a 38 43 3d cf 4c 1a bd
       -0.028102977 -0.07197897 0.047661103 -0.037670907
000350 c0 08 27 3b 19 62 64 bc 7e 78 ea 3c ec fd 07 3d
       0.0025487393 -0.013939404 0.028621908 0.033201143
000360 d8 83 a9 3d e0 3a f0 bd cc f1 4c 3b 79 c7 f1 bd
       0.082771 -0.117299795 0.0031272052 -0.118056245
000370 57 2f ab bc 3c 00 49 bd 29 52 37 bd f8 25 7e 3d
       -0.020896597 -0.04907249 -0.04475609 0.06204793
000380 7a ab fd bd ef eb 18 3d 3d 7f a3 3d 18 76 5a 3d
       -0.12386222 0.03733438 0.07983253 0.05333528
000390 51 cc 51 3c eb 2b d1 bd b0 07 6d 3c 38 4a d5 bd
       0.0128050605 -0.10213455 0.014467165 -0.10414547
0003a0 7b 31 02 3c fc 5a 45 3d 94 c9 39 3d 8a 90 89 3c
       0.007946367 0.048182473 0.045358256 0.016792554
0003b0 c4 0c 71 3b 32 12 e7 bc f8 9b e7 3d f0 c0 28 bd
       0.003678129 -0.028206918 0.113090456 -0.041199625
0003c0 46 d9 af 3c b8 76 96 bc a4 89 29 bd 7d 66 8e bc
       0.021465909 -0.018367156 -0.04139103 -0.017382855
0003d0 c7 be 9e 3d 62 7f a4 bd 9f 38 fc bd 9a 6b 51 bd
       0.07751232 -0.08032109 -0.12315487 -0.051128007
0003e0 d9 70 ef bb df 93 f1 3d 83 e4 21 3d e7 d5 90 3d
       -0.0073071537 0.11795782 0.039524566 0.07072049
0003f0 c8 4d a8 bc 5c 99 54 3d de 1a d6 bd 02 6f 77 bd
       -0.020544901 0.051904067 -0.10454343 -0.0604086

bias f4 [64]
000000 a9 0d 9a 3d 51 a5 13 3c 73 ec f4 3d 9f 84 d1 bd
       0.07522137 0.0090115825 0.119591616 -0.102303736
000010 96 cb e3 3c 21 82 d5 3d 3a b4 0e bc 81 bb cf bd
       0.027807038 0.10425211 -0.008709962 -0.101431854
000020 37 0d 5e bd e3 a4 61 bd fc 4a 16 3d be 67 7c 3d
       -0.05421182 -0.05508889 0.036692604 0.061622374
000030 d3 8e 01 3e be d0 79 3d 85 d4 ff 3d 83 9c cb 3c
       0.1265214 0.060990088 0.12491707 0.024854904
000040 5f 07 07 3e e1 ce 00 3d d8 df c5 bc f2 a2 1f 3e
       0.13186406 0.031447295 -0.024154589 0.15589502
000050 86 b0 55 bd a3 83 88 3d bd 89 a1 3d 64 6a a1 3d
       -0.0521703 0.06665733 0.078875996 0.078816205
000060 89 80 3f 3d 27 da 2a bd 6d 9b 9a bd aa 3d 8d bd
       0.04675344 -0.041711953 -0.07549176 -0.06896527
000070 0f 3d 4d bd 47 cf 87 3d 73 4b 5d 3b 72 a7 ce bc
       -0.05010706 0.06631332 0.0033766895 -0.025226329
000080 5d 47 f5 bd 03 86 8d 3d d8 8f 9a 3d 30 e3 8e bc
       -0.11976502 0.06910326 0.07546967 -0.017442316
000090 91 4b 8c 3c 08 b5 41 3d 9d c2 13 bd 60 03 02 bd
       0.017125877 0.047291785 -0.03607427 -0.0317415
0000a0 10 37 66 3d f2 05 96 bc 5e 7f 38 bb 60 52 34 3d
       0.056204855 -0.018313382 -0.0028152089 0.04402387
0000b0 f5 10 89 3d 4d c7 14 3d 84 ee 0b bc 86 a1 1b 3d
       0.066926874 0.03632288 -0.008540753 0.037995838
0000c0 2b 2b da 3c 20 aa 8d bd e6 0b ba 3d 53 0f 2d bd
       0.026631912 -0.069172144 0.09084301 -0.042250942
0000d0 17 21 98 3d c8 29 1f bd 1c 27 81 bc af 4e 56 3d
       0.074281864 -0.038858205 -0.01576572 0.052321132
0000e0 39 01 2b bc b9 f0 ec 3d 96 75 f4 bb 1f 62 af 3d
       -0.010437303 0.11569352 -0.0074603064 0.08563637
0000f0 d3 ee 7d 3d c8 0c 5a 3d 19 62 3b 3d f1 2f 61 bd
       0.06199534 0.053234845 0.04574785 -0.05497736

weight f4 [1, 64]
000000 9d bd a8 3d c9 e1 06 3d 52 09 5f bd ec b2 9f bd
       0.08239291 0.03293017 -0.054452248 -0.077977985
000010 80 57 c0 bd 64 6f b5 bd 65 3e b9 bd 15 9e a5 3d
       -0.09391689 -0.08859137 -0.09045104 0.080867924
000020 3f 7b 08 be f5 4e 18 3e 14 1c 24 be 50 35 0e 3e
       -0.13328265 0.1487387 -0.16026336 0.13887525
000030 20 08 fa bd c2 d3 c7 3d 8e 2b 0e 3e ed 95 12 3e
       -0.12208581 0.097571865 0.13883802 0.14315005
000040 e5 8c e1 3d a1 1c 15 3e 2b 9b 99 3d 7b 66 8b 3d
       0.110132016 0.14561702 0.07500299 0.06806656
000050 02 2f c7 3d 70 1e ed 3d 6a 59 3b bd 4d 05 89 bd
       0.09725763 0.11578071 -0.04573957 -0.06690464
000060 5e 14 be 3d 05 e7 7c 3d 51 79 bd 3d d6 12 af bd
       0.092812285 0.061743755 0.09251655 -0.085485145
000070 82 83 83 bc 9a b2 cd 3d 12 9f 8a 3c 4f 34 17 be
       -0.016053919 0.10043831 0.016921554 -0.14766048
000080 29 cb d1 3d 10 71 1f 3e 2a 9d ff 3d a2 ca 27 3e
       0.10243828 0.15570474 0.124811485 0.16385892
000090 ee da 02 be e8 0b 4b 3e 0d 89 7f 3c 0b 66 db bd
       -0.12778828 0.1982876 0.01559664 -0.107128225
0000a0 68 f7 28 be 2d 23 69 3d bd b2 7b bd be 14 7c bd
       -0.16500628 0.056918312 -0.061449755 -0.06154322
0000b0 f0 af 06 be 14 91 0a be 73 aa 05 be 76 3a 05 be
       -0.13153052 -0.13531905 -0.13053302 -0.13010582
0000c0 65 f5 3a 3e fd 93 a1 3d c1 a9 03 3e 9e c9 d9 3d
       0.18257673 0.07889555 0.12857725 0.106341586
0000d0 49 f0 b0 3d 62 c9 2b be 5a ba 1a 3e eb f0 78 bd
       0.08639581 -0.1677604 0.1511015 -0.060776632
0000e0 ae fe 86 3d cf 49 99 3d c1 c7 0d be ee 28 df 3d
       0.06591545 0.07484781 -0.13845731 0.108964786
0000f0 f5 57 12 3e 66 2e a4 3d 0d f1 1e 3e 09 13 c0 bb
       0.14291365 0.08016662 0.15521641 -0.005861644
